checkpoint_final.pth (torch, 156309 bytes, 32 tensors)

weight f4 [4, 1, 3, 3]
000000 c8 50 39 bf 5e b6 4f bf 61 92 87 40 b5 96 3d c0
       -0.7238889 -0.81137645 4.2366185 -2.9623234
000010 66 bc f5 bf be 06 41 40 5d 8f 0d c0 15 7d d0 bf
       -1.919812 3.0160365 -2.2118752 -1.6288172
000020 74 eb 35 40 e7 b8 75 40 2b a2 0d 40 13 44 0a 40
       2.842496 3.8394105 2.213023 2.160405
000030 f2 65 ee 3f d4 47 34 bf 41 21 82 c0 eb 30 ca bf
       1.8624861 -0.704221 -4.0665593 -1.5796179
000040 36 12 77 c0 41 92 a0 c0 32 36 84 c0 84 ed 42 c0
       -3.8604865 -5.0178533 -4.1316156 -3.0457468
000050 5d 13 47 c0 08 f8 b9 be 96 8e 84 be d5 55 8f bf
       -3.1105568 -0.36322045 -0.25890034 -1.1198069
000060 62 ee 77 40 c9 b6 70 40 81 ab 81 40 7d e5 9e c0
       3.8739247 3.7611563 4.0521855 -4.9655137
000070 2d 6b b3 c0 0f b7 b5 3e b8 59 25 c0 04 b4 03 c0
       -5.606833 0.35491225 -2.583601 -2.0578623
000080 be 9a 93 3f 32 da 17 40 13 2f 13 40 b3 f5 71 40
       1.1531599 2.3726926 2.2997482 3.7806213

bias f4 [4]
000000 b4 6d 5f bd 8b a2 72 40 1c e0 ea 3f 12 c9 27 3e
       -0.05454798 3.7911708 1.8349643 0.16385296

weight f4 [8, 4, 3, 3]
000000 ea 44 20 c0 d8 45 e5 3f ff ae 2a 40 21 d4 f0 bf
       -2.5042062 1.791194 2.666931 -1.8814737
000010 59 b5 6e 3f 52 2b b3 3f aa 50 0f c0 ba 1b 96 3f
       0.93245465 1.3997595 -2.2392983 1.1727211
000020 44 3e 40 3f 9a d5 51 be b5 28 23 c0 34 6c 6b 3f
       0.7509501 -0.20491639 -2.5493596 0.9196198
000030 60 53 98 be 77 4f 23 40 a2 af 7f 40 71 a1 2c 40
       -0.2975111 2.5517251 3.9950948 2.6973536
000040 35 e5 89 40 e0 d4 85 40 60 32 d3 3f 39 79 18 40
       4.3092294 4.1822357 1.6499748 2.3823988
000050 24 ee 9b bf 78 f1 53 3f 4a 7b cb bf 7b 51 81 c0
       -1.218205 0.8279033 -1.5897 -4.0411963
000060 08 b6 6d 40 c5 13 c6 bf e6 60 83 3e 13 a3 d5 c0
       3.7142353 -1.5474783 0.25659865 -6.6761565
000070 dd 88 7c c0 46 c6 5d c0 a3 01 28 c0 ca 2f 3a bf
       -3.9458535 -3.4652267 -2.6251 -0.7272917
000080 ff 2b 9b 3f c6 f4 a2 3f 01 06 f5 3f 69 5e 84 40
       1.2122802 1.2730949 1.9142457 4.1365247
000090 4c 5b 4f 40 f5 42 80 40 cd a7 f2 3e 0e 0f bb 3f
       3.2399473 4.0081735 0.47393647 1.4613969
0000a0 5e 11 6b bf c6 96 16 c0 27 07 a1 be ab 2b f0 bf
       -0.91823375 -2.3529525 -0.3145077 -1.8763326
0000b0 52 89 28 c0 bb 9f 9f 40 46 b6 ba 40 36 4e d1 bf
       -2.6333814 4.9882483 5.83475 -1.6351993
0000c0 26 12 d1 40 80 ee 84 3f 62 fc 57 c0 a0 bb 7e 3f
       6.5334654 1.0385284 -3.3747792 0.99505043
0000d0 c9 cf 82 c0 21 cd 3f c0 a3 d4 2b bf e9 0b 57 3f
       -4.0878644 -2.996895 -0.6712133 0.8400255
0000e0 6f 04 6c 40 a7 50 29 3f 58 76 7e 40 c9 84 8b 3f
       3.6877706 0.6613869 3.9759731 1.0899898
0000f0 24 5a 9d 3f d3 aa ce 3e 64 6b 6a c0 fa df 1a c0
       1.2293134 0.40364704 -3.6628046 -2.4199204
000100 58 09 99 3f 20 39 85 bf 70 be 80 be 1b cc 86 40
       1.1955976 -1.0408058 -0.25145292 4.212415
000110 98 62 f5 be 58 18 1f 3f 5e a3 bf be 85 de 4f c0
       -0.47926784 0.6214652 -0.37429327 -3.2479565
000120 93 b8 ec 3f d4 3f 36 40 4c 91 66 40 33 b1 37 bf
       1.8493828 2.8476458 3.6026182 -0.7175476
000130 97 73 bc 3e 1c c9 10 40 07 a6 82 c0 cf da 5e c0
       0.36806938 2.2622747 -4.082767 -3.482105
000140 bf e6 22 3f e4 08 a5 40 25 2e 07 40 86 a4 77 c0
       0.6363334 5.1573353 2.1121914 -3.8694167
000150 d5 34 e5 3f 25 e3 a7 be e0 1c af c0 21 b2 83 3e
       1.7906748 -0.32790485 -5.472275 0.2572184
000160 85 05 e9 bf 92 c3 c5 c0 db 4b ff bf 7d 7e 84 3f
       -1.820481 -6.1801233 -1.9945024 1.0351101
000170 31 7a 1a bf e5 37 8e 3e 6c 1a 1e 3f 78 70 82 bf
       -0.603427 0.2777702 0.61759067 -1.0190573
000180 b9 0a 05 40 63 50 38 bf b3 1c 8d 40 1e aa 8e 40
       2.0787795 -0.7199766 4.4097533 4.4582663
000190 41 67 3b 40 b8 99 1d c0 c1 58 82 40 ae c8 b4 3f
       2.928177 -2.4625072 4.073334 1.4123743
0001a0 7d f1 a3 bf 1d 26 24 40 4a 5e 12 bf fe 38 28 c0
       -1.2808071 2.5648263 -0.57175124 -2.6284785
0001b0 21 b9 d1 bf 53 0b 91 c0 00 80 d1 bf 12 cb 32 40
       -1.6384622 -4.5326324 -1.6367188 2.7936444
0001c0 33 71 d7 3f 35 28 d1 3f 99 60 8c be df 3d 77 bf
       1.6831421 1.6340395 -0.27417448 -0.9657878
0001d0 f4 4b 45 bf e2 20 98 bf 91 81 53 bf c8 40 28 3f
       -0.7706902 -1.1885035 -0.8261958 0.6572385
0001e0 d9 3f 31 c0 fd 52 80 c0 78 13 1e c0 37 6b 93 be
       -2.769522 -4.0101304 -2.4699383 -0.28792736
0001f0 6f 64 1d c0 9c fe 6b c0 6a eb 42 be 56 1b cf be
       -2.459255 -3.6874151 -0.19035116 -0.40450543
000200 e1 0c 18 bf 68 29 46 c0 86 a8 14 40 1f a6 f9 40
       -0.5939465 -3.0962772 2.3227859 7.8015285
000210 e7 0b 02 c1 c3 95 a9 3a 5f 9d 38 40 f9 1a a2 40
       -8.127906 0.0012938309 2.8846052 5.0657926
000220 8c 2e 62 40 5a 48 78 40 35 08 a8 3f ad 83 9c 3e
       3.534091 3.879416 1.3127505 0.3056921
000230 a1 a5 f4 3f 58 9f 3f bf b8 c9 80 c0 f8 c6 c2 c0
       1.9113046 -0.74852514 -4.024624 -6.086788
000240 4a 54 26 bf b7 d3 58 bf 88 8e 78 bf bb dd a2 3f
       -0.64972365 -0.8469805 -0.97092485 1.2723917
000250 8d fe 70 be d2 65 09 bf c7 71 e9 3e 6e 4e 4b 3f
       -0.23534603 -0.5367099 0.45594618 0.7941655
000260 88 d8 6f bf 8e e2 48 40 bc b3 14 bf 32 78 97 be
       -0.93689775 3.1388278 -0.5808675 -0.2958389
000270 d2 0a 30 3f a7 1d 30 bf 95 48 76 3f 3d 21 31 40
       0.6876651 -0.68795246 0.962045 2.7676537
000280 da 79 d1 3f d9 31 76 3f f2 fe 95 3f 7c ef 2f 40
       1.6365311 0.9616981 1.1718428 2.748992
000290 c3 f4 ba be 9a df 41 bf ce 46 fa bf 72 4c b2 bf
       -0.36514863 -0.75731814 -1.9552858 -1.3929579
0002a0 ae 8a b1 3e ce 6a b7 c0 c9 6b 58 c0 ae fb 08 bf
       0.34676117 -5.7317877 -3.3815787 -0.5350903
0002b0 93 ea 49 c0 68 04 f6 c0 38 ca 08 40 d3 aa f7 be
       -3.1549423 -7.688038 2.1373425 -0.48372516
0002c0 45 51 93 c0 10 30 bb 40 e7 5f 47 40 dd b1 b2 3f
       -4.6036706 5.849617 3.1152284 1.396053
0002d0 6a da 63 3f 1d 20 02 3f b6 65 68 3f fc 79 9a 3f
       0.8900515 0.5083025 0.907802 1.2068477
0002e0 10 92 2f bf 5b f0 bd 3f bf a5 68 c0 0c 14 80 c0
       -0.6858225 1.4838976 -3.6351163 -4.002447
0002f0 88 7e ae bf 00 8e df 3f 7b 67 23 3f f7 64 9e 3f
       -1.3632364 1.746521 0.63829774 1.2374562
000300 26 30 fc bf e8 77 e1 bf 7f ab 86 bf 74 29 95 c0
       -1.9702194 -1.7614717 -1.0521086 -4.66131
000310 63 e4 c0 c0 cb 8d f1 c0 22 c6 31 3f b9 6b 0c bf
       -6.027879 -7.5485587 0.6944295 -0.5485187
000320 95 3c 66 c0 27 cf 39 3f 5b ea c8 be 4e f5 2b 3f
       -3.5974476 0.72581714 -0.392413 0.6717118
000330 07 00 cb be be e3 a0 40 bf cd 1b 41 2b 40 ba 40
       -0.39648458 5.0278006 9.737731 5.820333
000340 95 4b 7a 40 36 aa 03 40 2d a3 f9 3f b3 5d cf be
       3.9108632 2.0572639 1.9502922 -0.40501174
000350 42 0c b1 3e d8 bf a1 bf 16 ca 87 bf bd 61 e2 3e
       0.34579664 -1.2636671 -1.0608547 0.44215193
000360 08 59 2f 40 52 75 ed 3c d0 3a 8c bf a3 f7 19 40
       2.739809 0.028986607 -1.0955448 2.4057395
000370 89 d2 93 3e cb 23 f6 bf 50 de b2 3f 22 93 46 c0
       0.28871563 -1.9229673 1.3974094 -3.1027303
000380 25 59 7c c0 da f7 13 c0 53 e6 1d c0 4e 34 35 3e
       -3.942941 -2.3120027 -2.4671829 0.17695734
000390 42 68 01 40 f5 8f ec 3e 3f 8d 01 40 e2 de 87 40
       2.0219884 0.4620358 2.024246 4.2459574
0003a0 7b 75 1a 40 24 8a 0e 3f bb 30 81 3e a5 c6 3c 40
       2.4134204 0.55679536 0.2523249 2.9496243
0003b0 f3 53 72 40 dc b2 20 c0 c2 2d d9 bf 26 9c a3 bf
       3.7863739 -2.5109167 -1.6967089 -1.2782028
0003c0 66 4a 2c c1 3b 7a f8 c0 94 31 34 c0 1b d1 99 c0
       -10.768164 -7.7649207 -2.815526 -4.8067756
0003d0 f7 d7 5e c0 30 17 77 c0 4f 0e 84 c0 71 92 c7 c0
       -3.4819314 -3.8607903 -4.1267467 -6.236626
0003e0 63 22 b3 c0 08 d5 38 bf 60 7c 99 3f bc 13 8c 3f
       -5.5979476 -0.7220006 1.1991081 1.0943522
0003f0 33 55 31 40 54 19 ad 3f 4b 6c f7 be 8b be 09 40
       2.7708251 1.3523355 -0.48324808 2.1522548

bias f4 [8]
000000 7e bb 82 be 7e 4c d3 3e 57 2c 99 be ec 99 6d 3e
       -0.2553367 0.41269296 -0.2991664 0.23203248
000010 1f 78 9d bf 3e 82 22 bf 87 78 a7 3d 15 9e f8 bd
       -1.2302283 -0.63479984 0.08177286 -0.12139527

weight f4 [16, 8, 3, 3]
000000 45 f6 1c c0 f5 fe 56 bf 9e 2b 91 c0 76 24 b6 c0
       -2.452531 -0.83982784 -4.5365744 -5.691951
000010 bc 36 62 bf ae c2 25 bf 91 1d 99 c0 f1 39 83 c0
       -0.8836477 -0.6475018 -4.784859 -4.100823
000020 7d b6 03 c1 05 9c 6a 40 87 64 f8 3f fa be c1 c0
       -8.232053 3.6657727 1.9405679 -6.0545626
000030 97 ef b6 bf dd 85 1d c0 8e 25 c2 c0 7c b8 22 40
       -1.4291867 -2.4612954 -6.0670843 2.54251
000040 22 66 83 bf 68 a7 a9 bf 88 f3 a7 c0 43 c7 d0 3f
       -1.0265543 -1.3254213 -5.248478 1.631081
000050 41 ee f1 bd 11 30 9f c0 67 3e 05 c0 34 96 41 c0
       -0.118130215 -4.9746175 -2.0819337 -3.0247927
000060 66 89 cd c0 56 f1 46 c0 dd 0e 58 c0 32 59 00 c0
       -6.4230223 -3.10848 -3.3759072 -2.005444
000070 29 b1 63 3e 53 db b4 c0 3d 30 9d bf 27 e3 2f 3f
       0.2223555 -5.651773 -1.2280346 0.6870598
000080 42 32 0d c0 3c 61 ff 3f b2 3d 24 3c 01 9c 1a c0
       -2.2061925 1.9951549 0.010024475 -2.4157717
000090 5f 0e 01 c0 8e 1f 6a 3f 86 2e 81 bf 54 7d c3 c0
       -2.0165021 0.914544 -1.0092323 -6.109049
0000a0 8c 4c 53 bf 32 18 ac 3d f3 17 ef c0 f4 de 8f c0
       -0.82538676 0.084030524 -7.4716735 -4.495966
0000b0 40 a4 03 c1 a5 2c 65 c0 91 81 97 bc 51 57 2b c0
       -8.2276 -3.58085 -0.0184944 -2.6772044
0000c0 99 cf 11 bf e5 7d 30 bf 99 03 62 c0 f5 2b c9 bf
       -0.56957394 -0.689421 -3.5314696 -1.571654
0000d0 bb 57 e3 bf d1 09 3d c0 42 9c 1b c0 fb f4 39 bf
       -1.7761148 -2.9537241 -2.4314122 -0.72639436
0000e0 80 01 27 c0 d8 f3 f9 c0 fa b6 ba bf 0b 58 98 c0
       -2.6094666 -7.811016 -1.458709 -4.7607474
0000f0 f4 88 db be aa 4f c8 be 85 f1 cc bf b4 4c 9a bd
       -0.42877924 -0.3912328 -1.6011206 -0.07534161
000100 91 7e 2f bf 69 31 c2 bf 18 cf ed be 09 29 66 bf
       -0.685525 -1.5171329 -0.46447062 -0.89906365
000110 5f f8 a3 bf cf 46 4c 3f ed 48 1f 3f f3 46 05 c0
       -1.2810172 0.79795545 0.6222065 -2.0824554
000120 d1 4f 44 40 c6 9c 83 be d0 90 0e 40 26 a6 8e 40
       3.0673716 -0.25705546 2.2275887 4.457782
000130 f7 8f 0a bf 11 50 e8 3e da 18 2d 3f a5 e1 00 c0
       -0.5412592 0.45373586 0.67616045 -2.0137722
000140 31 5a 81 40 b6 e0 db be bb d5 00 c0 16 93 1a 40
       4.0422597 -0.42944878 -2.013045 2.4152274
000150 f6 0c c8 c0 7f 9c ca 3f c6 ec 7e 40 a4 13 87 40
       -6.251582 1.5829009 3.9832015 4.2211475
000160 ef 50 55 40 b1 db 08 bf 7f d9 3d c1 8f f6 04 c1
       3.3330648 -0.5346022 -11.8656 -8.310195
000170 7b 42 dc c0 a7 a2 2d c1 01 07 4e c0 db aa 8c bd
       -6.8831153 -10.85221 -3.2191775 -0.068685256
000180 56 a8 a6 bf 9d f7 ea bf b2 0c 65 c0 d4 b9 c7 3e
       -1.3020122 -1.8356816 -3.5788999 0.39008963
000190 e4 22 4a 40 24 42 6c c0 36 f8 c3 bf e4 3b 00 c0
       3.1583796 -3.691537 -1.5310123 -2.0036554
0001a0 2b 5f 88 c0 23 67 51 bf dd a3 a1 c0 04 9b a4 c0
       -4.261617 -0.81798 -5.051253 -5.143923
0001b0 6f 7b a5 bf 78 41 81 3e 15 d6 a9 3f d7 32 ab 3f
       -1.2928294 0.2524526 1.3268458 1.337489
0001c0 79 86 a4 bd 57 3c 6c c0 41 06 ca bf 9e 7d 4b c0
       -0.08033461 -3.6911829 -1.5783159 -3.179542
0001d0 c3 dd b1 bc fc c6 55 c0 14 d4 99 3c 11 d3 03 c1
       -0.02171219 -3.34027 0.018777885 -8.23903
0001e0 05 2c 85 c0 75 cd 09 c0 03 49 00 c0 7d a2 d2 3d
       -4.1616235 -2.153165 -2.0044563 0.102848984
0001f0 2b ef 4a 3f af e5 4f c0 e4 05 c9 40 bf 77 05 40
       0.7927119 -3.2483938 6.281969 2.0854337
000200 c8 0a 53 3f 4b ad 8d 40 c1 ac 00 c0 fa 86 1b c0
       0.82438326 4.427404 -2.010544 -2.4301133
000210 68 98 d7 bf 52 b8 8a c0 5c 55 f0 bf fd 3d fa be
       -1.6843386 -4.335 -1.877605 -0.48875418
000220 a7 8f cd bf 0d 2d 3b c0 60 17 0b 40 fe 96 64 bf
       -1.6059464 -2.9246247 2.1733017 -0.89292896
000230 e8 2e 86 be de 93 39 3f 1b 3c fb 3f 3e f2 6d 3f
       -0.26207662 0.7249125 1.9627718 0.9294776
000240 7d 16 0d c0 da 34 9b bf 8b a2 d9 c0 1c 9d df 3f
       -2.2044976 -1.2125504 -6.8010917 1.7469821
000250 1d 5b 88 c0 22 b8 af bf 6e 30 a5 bf c8 90 31 c0
       -4.261122 -1.3728068 -1.2905405 -2.7744617
000260 6b b2 a8 bf 11 65 41 bf 0f 73 36 c0 f2 73 20 3f
       -1.3179449 -0.7554484 -2.8507726 0.6267692
000270 f8 92 60 3f f2 d3 af bf ca 04 fd be c1 74 a2 c0
       0.87724257 -1.3736556 -0.49417716 -5.076752
000280 2e 85 60 c0 42 b9 e3 c0 98 74 02 40 e1 f7 83 bd
       -3.5081286 -7.1163645 2.0383663 -0.064437635
000290 fd bb 0b be f0 93 4f 40 63 4a 8c 3f b9 45 c8 3e
       -0.1364593 3.2434044 1.0960201 0.39115694
0002a0 c5 7c d4 3f b7 e5 36 bf cf 8c 04 be 20 44 8b c0
       1.6600577 -0.7144427 -0.12944339 -4.352066
0002b0 f9 d9 ec bf 8c da 80 40 77 6f 51 c0 d8 e2 e9 3e
       -1.850402 4.026678 -3.2724283 0.4568088
0002c0 65 7a 73 40 b5 3f c9 c0 9a 52 e7 bf 42 8f 57 40
       3.8043454 -6.2890267 -1.8072083 3.3681188
0002d0 06 f2 42 3f 4d 02 7f 3e d6 db f2 c0 ca 29 1a 40
       0.7615055 0.24903221 -7.5893354 2.4088006
0002e0 99 28 e4 bf 0e 86 1a bd df 0b 98 40 0c 74 ec 3f
       -1.782489 -0.0377255 4.751449 1.8472915
0002f0 94 07 bb 40 20 89 91 bf be d4 5a be 66 e4 a7 3f
       5.844675 -1.1369972 -0.21370217 1.3116577
000300 7a 6f d5 bf 01 43 0d c0 a7 fb dd bf 7c ac 09 c0
       -1.6674645 -2.2072146 -1.7342423 -2.1511526
000310 f2 08 ea bf fe 82 d8 3e 0f ce 15 c0 79 0e a7 bf
       -1.828398 0.4228744 -2.3407018 -1.3051292
000320 6f b4 8b 40 da 80 b7 c0 a9 a0 e7 3e 23 38 f9 40
       4.3657756 -5.734479 0.4523976 7.7881026
000330 90 55 9f c0 b5 6b 82 bf 47 59 b4 40 1c e7 b1 be
       -4.9791946 -1.018912 5.635898 -0.34746635
000340 43 7b d7 3f ee 4a 63 be fd 53 65 bf 57 29 50 3e
       1.6834491 -0.22196552 -0.8958128 0.2032827
000350 b3 f8 3e bf 1b 99 01 bf 6a 53 bd 3e 17 cc 01 bf
       -0.74598235 -0.50624245 0.36977702 -0.5070204
000360 51 e7 2f 40 7d 8d a6 3f a5 73 89 c0 df 9a 86 3f
       2.7484934 1.3011929 -4.295367 1.0516013
000370 c0 a5 2c bf a9 1b 9a c0 c9 e2 44 c0 2c f5 5c c0
       -0.67440414 -4.8158765 -3.0763419 -3.452464
000380 7d c7 18 c1 bd 38 f2 c0 ad 62 83 bf df d2 58 bf
       -9.548703 -7.569426 -1.0264488 -0.84696764
000390 f8 c0 f1 bf 9c 02 be bf 14 8b b3 c0 12 72 89 3f
       -1.8887014 -1.4844546 -5.6107273 1.0737936
0003a0 fe 05 06 c0 f6 92 3c bf f8 23 56 c1 a0 4c 43 be
       -2.0941157 -0.73661745 -13.383781 -0.19072199
0003b0 4a 4a 67 40 65 21 4d c0 d8 66 8b 3f c0 9c 39 bf
       3.6139092 -3.2051632 1.089076 -0.72504807
0003c0 1c d6 bb be 6f 45 69 bf bf a4 f4 bf 8d 55 ea bf
       -0.3668679 -0.9112157 -1.9112777 -1.8307358
0003d0 55 38 35 bd ea 04 2f 40 dc ba ab c0 db 6d 60 bf
       -0.044243176 2.734675 -5.36656 -0.87667626
0003e0 75 0a cf be 05 64 18 3f 0d d7 09 40 cf 89 62 3f
       -0.40437666 0.5952762 2.1537507 0.8849153
0003f0 3b 97 27 bf ff 60 0f c0 b7 ef c1 c0 5c 70 de 3f
       -0.65465134 -2.2402952 -6.060512 1.7378039

bias f4 [16]
000000 50 71 e2 bd e0 cc 32 bd 98 c1 22 3e de 9a 28 3f
       -0.11056769 -0.043652415 0.15894163 0.6586131
000010 be 7a 68 be ee 34 3a be a1 e9 ce 3d be a6 cb 3e
       -0.22703072 -0.18184254 0.10103155 0.39775652
000020 78 40 44 3d 7a 93 d9 3d f5 1f f7 3d b3 84 53 bd
       0.047913045 0.10623832 0.12066642 -0.051640224
000030 e2 c1 6c 3d 16 01 9a bd eb f1 be bb ba 4e 3c be
       0.05780209 -0.075197384 -0.0058271787 -0.18389407

weight f4 [32, 16, 3, 3]
000000 84 b4 3d c0 b3 36 0f c0 41 8e a7 40 86 4c 07 c0
       -2.9641428 -2.2377136 5.236115 -2.1140456
000010 48 fa 9d c0 af 9e 7d 3f 58 77 2e 40 df b0 0d c0
       -4.936802 0.99070257 2.7260342 -2.2139204
000020 6a cb fe 3e db 9e 34 be d5 84 79 c0 8e 3d c3 c0
       0.49764568 -0.17638724 -3.8987324 -6.101264
000030 e2 d9 bf 3e 74 6f fb bf bb 7d 23 c0 7a 4e 2e 3f
       0.3747092 -1.9643388 -2.554549 0.68088496
000040 27 98 f4 bf 5f f3 5f c0 98 65 f5 bf b5 74 32 c0
       -1.9108933 -3.4992292 -1.9171629 -2.7883732
000050 7e d5 df bf 30 b9 a1 c0 db 52 15 3f bd eb 22 40
       -1.7487028 -5.053856 0.5832955 2.5456383
000060 e8 52 26 40 6b 04 1e 40 dc ed 4a 40 be 3d 1c c1
       2.5988102 2.4690197 3.1707678 -9.765074
000070 3e 44 74 be 81 98 6d 40 b5 9a 42 c0 ad 4e 00 c0
       -0.23854157 3.712433 -3.0406926 -2.004802
000080 de 8e 57 40 51 cf 77 bf 30 a5 ae 3e 37 38 f0 3f
       3.368095 -0.96800715 0.34110403 1.8767155
000090 86 0b 3a 40 10 2a aa c0 8b 00 dc 3f c7 2a ad c0
       2.9069533 -5.3176346 1.7187666 -5.411472
0000a0 ba eb 73 c0 81 58 98 3f 3b ce 97 c0 9e 66 18 c0
       -3.8112626 1.1902009 -4.7439246 -2.3812633
0000b0 50 a4 93 be 54 70 a2 c0 14 dd a8 c0 9b fa e8 bf
       -0.28836298 -5.076212 -5.276987 -1.8201479
0000c0 6e 08 80 c0 ff 1c a4 c0 3a 26 d5 c0 3b f2 94 bf
       -4.001029 -5.1285396 -6.6609163 -1.1636423
0000d0 ab e9 a0 c0 ff ac c7 c0 66 e8 de bf 4d 9e ac bf
       -5.028524 -6.2398677 -1.7414672 -1.348581
0000e0 6c e2 1c bf 0c 4d 5d c0 91 1d 25 c0 bf d1 0e c0
       -0.6128299 -3.4578276 -2.5799296 -2.231552
0000f0 11 f7 42 40 94 51 78 c0 98 00 a8 bf 31 72 72 bf
       3.0463297 -3.8799791 -1.3125181 -0.9470549
000100 cc d5 7a c0 2d 73 fb 3f e1 25 42 c0 db 41 67 bf
       -3.9192991 1.9644524 -3.033562 -0.9033486
000110 16 dc ca 40 4a 22 05 c0 79 60 a4 3d 55 2b 62 40
       6.339366 -2.0802178 0.08026213 3.5338948
000120 e3 be 33 40 81 c6 8f 40 5a d8 75 bf 7b e9 b7 bf
       2.8085258 4.4929814 -0.9603325 -1.4368128
000130 d0 78 2c 3e 9c d2 04 c0 dd db 97 bf 0a 7f 0d c1
       0.16842961 -2.0753546 -1.1863972 -8.843515
000140 68 89 3a bf 30 1a 92 c0 00 60 bb bf 5d ec 81 40
       -0.72865915 -4.5656967 -1.4638672 4.060103
000150 9f 34 7f 3f 47 a9 4a bf d5 28 62 40 81 26 08 c0
       0.9968967 -0.79164547 3.5337422 -2.12735
000160 92 ad 62 bf 4b 17 37 40 49 c7 ef bf ad af 26 bf
       -0.885461 2.8607967 -1.8732692 -0.6511181
000170 b4 10 c4 c0 74 87 85 3f df ea 17 c0 ae 77 25 3f
       -6.127039 1.0431962 -2.3737104 0.6463574
000180 b9 47 8a 3d d8 84 a9 bf e3 0d 93 3d 95 0c be c0
       0.06751961 -1.3243666 0.07180383 -5.939036
000190 90 c7 6e 3f 90 8e fb bf d2 6d d0 bf 8e c5 60 c0
       0.9327326 -1.9652882 -1.6283514 -3.5120578
0001a0 89 69 db c0 a2 ab 03 c1 f0 60 d3 c0 8c dc 71 c0
       -6.8566327 -8.229403 -6.605583 -3.779086
0001b0 d2 43 fb bf ba 44 b2 c0 90 56 56 bf cd 60 7f c0
       -1.9630072 -5.5708895 -0.83725834 -3.9902833
0001c0 95 3f 92 c0 3c 83 f4 3d fb 68 8b bf 01 ea 43 3f
       -4.5702615 0.119390935 -1.0891412 0.76528937
0001d0 9e 0b 5c bf c1 29 97 bf b5 c3 50 c0 5c 2d 18 c0
       -0.85955226 -1.1809617 -3.261945 -2.3777685
0001e0 b3 b6 3d c0 60 02 ad be cd 31 0d 40 c5 90 24 bf
       -2.964276 -0.33790874 2.2061646 -0.642834
0001f0 71 0d 39 40 49 43 b1 3e 45 ec a2 3f 74 9f c5 bf
       2.8914454 0.34621647 1.2728354 -1.5439286
000200 60 66 85 40 ea 81 e8 3e 4e df 3f 3f 30 f5 d7 be
       4.168747 0.45411617 0.7495011 -0.4217925
000210 6a f7 17 bf 34 1e 51 40 fe 41 ef bf 80 07 24 40
       -0.593619 3.2674685 -1.8692014 2.5629578
000220 b3 fb 72 40 5f 88 ff bf f5 9e de 3d fc b1 7d bc
       3.7966125 -1.9963492 0.108701624 -0.015484329
000230 96 8a 91 c0 59 41 02 3e 9b a3 36 c0 63 f3 bc 3f
       -4.548167 0.1272024 -2.8537357 1.4761776
000240 3a b2 8b 40 bc fe b4 c0 cc 0d fc c0 33 cb c8 40
       4.365506 -5.6560955 -7.876684 6.2748046
000250 70 26 b6 bf c3 7a 82 c0 dd e5 de 40 01 17 2a 40
       -1.423048 -4.0774856 6.9655595 2.657654
000260 e1 e5 93 3f 36 7b 80 c0 c2 26 25 c0 68 62 66 c0
       1.1554528 -4.0150404 -2.5804906 -3.5997562
000270 53 ed 02 c0 90 b4 47 c0 0d 42 92 bd 0b 94 0c 40
       -2.0457351 -3.1203957 -0.071415044 2.1965358
000280 05 5f 92 be 19 2d 19 3f fe 91 43 40 5a 07 9d 40
       -0.2858812 0.5983444 3.0557857 4.9071474
000290 e3 71 62 c0 50 34 20 3e 5a 0d 24 c0 fa 0d eb c0
       -3.538201 0.15644956 -2.563315 -7.345456
0002a0 97 de ba be eb b5 93 c0 49 35 b2 c0 5a 7a a2 40
       -0.36497948 -4.615957 -5.5690045 5.0774355
0002b0 6b a6 37 c0 60 e9 d5 bf a7 80 74 40 6c 25 a7 40
       -2.8695323 -1.6711845 3.8203523 5.223318
0002c0 5d 04 20 c0 75 05 ba bc fb de 35 bf 5a e1 b1 c0
       -2.5002663 -0.02270768 -0.71043366 -5.5587587
0002d0 1d 04 31 3f 94 cf 6e 40 5e 49 71 40 8f f7 70 40
       0.691469 3.7314196 3.770103 3.7651098
0002e0 93 9f de bf b6 1f 26 c0 65 58 89 c0 73 f2 a9 bb
       -1.7392448 -2.5956855 -4.2920403 -0.005186373
0002f0 d5 52 2e c0 3e ee 4c c0 f0 05 56 bf 99 ed ad 3f
       -2.7238057 -3.2020411 -0.8360281 1.3588134
000300 3d 84 99 3e cd 2f 42 be 8b 43 db bf 12 61 9d be
       0.29983702 -0.18963547 -1.7129987 -0.3073812
000310 c0 f2 c7 bf b0 95 0f c0 ad 4e 31 bf f8 b8 39 c0
       -1.5620956 -2.2435112 -0.69260675 -2.9019146
000320 f3 e1 05 3f f0 9b a9 40 ee 3f 74 3f e8 a3 2c 40
       0.52297896 5.3002853 0.9541005 2.697504
000330 57 9e 1e 40 de ed 42 c0 6d 6c c6 bf 11 69 7a bf
       2.4784143 -3.0457683 -1.5501839 -0.9781657
000340 f9 78 04 40 84 88 e1 be 3e 8d 07 41 d0 a6 64 be
       2.0698836 -0.44049466 8.471983 -0.22329259
000350 d5 f1 b8 be b7 c7 5f 3f 87 b1 72 c0 63 da 02 bf
       -0.36122003 0.87414116 -3.7920854 -0.5111448
000360 ce 1d 1a c0 18 cd 2c c0 8d 63 66 40 c0 08 30 40
       -2.4080691 -2.700018 3.599826 2.750534
000370 24 d1 5d 40 86 8d 88 3f 2d b4 87 bf 28 b7 50 bf
       3.46589 1.066819 -1.060186 -0.81529474
000380 c0 77 ff 3f 63 4f 7d 40 e0 95 a8 be ac 34 ff 3f
       1.995842 3.9579704 -0.32926846 1.9937949
000390 0c 1e 8b 40 5a fd fe bd 76 35 ce bf 1b 1e 9d c0
       4.347418 -0.12450667 -1.6110065 -4.909925
0003a0 e1 64 89 3f ce a8 34 c0 82 e9 fe 3e 21 cd 1a 40
       1.0733911 -2.822803 0.49787527 2.41877
0003b0 d8 10 7a c0 a8 8e 9f 3e e0 bb 17 c0 b3 93 84 c0
       -3.907278 0.31163526 -2.370842 -4.1430297
0003c0 a8 59 05 c0 c8 6e ee 3f 86 b1 7e c0 2b f2 a1 3e
       -2.0835972 1.8627558 -3.9795852 0.31630072
0003d0 59 a7 49 c0 f9 93 44 c0 ba 17 8d 40 c7 fd 06 c0
       -3.150839 -3.0715315 4.4091463 -2.1092393
0003e0 d8 ed 0c c0 b9 26 1b c0 8a 92 7a 3f af a2 8b be
       -2.2020168 -2.4242384 0.9787985 -0.27272555
0003f0 cd 21 bc c0 49 78 82 3f 1e 26 e7 bf 3d b2 70 40
       -5.879126 1.0192958 -1.8058507 3.7608788

bias f4 [32]
000000 20 6b 0c 3d c1 52 a0 3d 1a 0d db 3d b2 c1 0c 3e
       0.03428185 0.07828284 0.10695858 0.13745764
000010 4e 61 4e be 4b 79 f4 bd a0 6f a1 bc 8f f1 97 3c
       -0.20154306 -0.11937197 -0.019706547 0.018547801
000020 5d 7d 70 bd 3b 58 eb bc 15 01 12 3d e9 68 17 bd
       -0.058713306 -0.028728595 0.035645563 -0.036965284
000030 c6 02 65 be 8e bd b1 bd ae a4 57 3e 24 1b 0c bd
       -0.22364339 -0.08678733 0.21058914 -0.03420557
000040 5b 95 9b bb db c6 01 be e9 2b d1 3d 2b 8a ca 3d
       -0.004748029 -0.12673514 0.10213453 0.09889635
000050 78 3b 5d 3e c8 cd b0 bd d1 c6 d9 bd f4 22 17 bd
       0.21604717 -0.08633 -0.10633624 -0.03689857
000060 38 6e c8 3d f6 8a f9 bc 22 90 d1 3d a6 bf a3 3c
       0.097866476 -0.03046177 0.10232569 0.019988846
000070 19 74 24 3e 6e 76 20 bc ce e1 50 3b 6c ea 37 3b
       0.16059913 -0.009793861 0.0031872871 0.002806331

weight f4 [64, 32, 3, 3]
000000 a4 46 bc 40 49 d8 3f 40 62 40 84 40 4a 31 96 3f
       5.883623 2.997576 4.132859 1.1733792
000010 23 9c 08 3e e5 a7 c1 40 74 f6 c0 be eb 84 76 40
       0.13340811 6.051745 -0.3768803 3.8518627
000020 68 fa b5 3e 8b ed d4 bf 68 a4 7b c0 52 17 4c c1
       0.35542607 -1.6634992 -3.9319096 -12.755693
000030 3d 2e 76 c0 26 68 62 c0 c6 29 dd bf 55 97 8d c0
       -3.8465722 -3.5376067 -1.7278373 -4.424723
000040 35 13 01 be ae ab 6d 3e d5 ba 90 bf 0e cc 8b 40
       -0.12604983 0.23210022 -1.1307017 4.368659
000050 7f 22 03 be 94 8a 16 bf 08 d7 5c bf 44 ee b5 3f
       -0.12806128 -0.58805203 -0.8626561 1.4213338
000060 d7 ac 8e c0 9e 27 87 40 50 7f b1 bf bb 65 13 bf
       -4.4585986 4.223586 -1.3866978 -0.57577103
000070 98 86 1c 40 77 9b a5 40 4e 29 fc bf a0 71 79 bf
       2.445715 5.1752276 -1.9700105 -0.97439003
000080 04 5f ad 40 ec 0e b1 bf 7e c9 ae bf 8c c4 29 40
       5.4178486 -1.3832679 -1.365524 2.6526213
000090 73 9b 8f 3f cc 82 87 c0 cf 86 53 c0 b4 76 29 3f
       1.1219314 -4.2347164 -3.305103 0.6619675
0000a0 a1 b5 0d 40 7b 13 02 40 e1 40 10 bf 27 a4 c3 bf
       2.2142107 2.032439 -0.56349 -1.528447
0000b0 3d 61 20 be 17 0c e6 bf c7 19 8e c0 b0 34 1d c0
       -0.15662093 -1.797244 -4.4406466 -2.4563408
0000c0 fd 0f 89 c0 87 c3 ab c0 38 90 14 c0 6d df 32 c0
       -4.2832017 -5.367618 -2.3213024 -2.7948868
0000d0 20 de f6 3f c0 f5 2d 40 64 c0 2f 40 aa 82 15 c1
       1.9286537 2.7181244 2.7461176 -9.3444
0000e0 47 e6 b6 bf b1 d7 51 40 8f bf 54 c0 f0 46 90 c0
       -1.4289025 3.2787898 -3.3241918 -4.5086594
0000f0 36 5f 32 40 45 9a b8 be 17 3b 11 c0 4b 59 ad 3f
       2.7870612 -0.36055198 -2.2692316 1.3542875
000100 67 bf 8c 40 26 9e ae be 9e 8f 6e 3e 1f 5d 36 40
       4.3983645 -0.34105033 0.23296973 2.8494337
000110 3b 92 c4 bf 8d a2 2c c0 df 4d b4 bf 87 b4 ca 3c
       -1.5357126 -2.6974213 -1.4086264 0.024744285
000120 7c 88 89 40 23 7d 0b 41 17 8e f8 c0 64 e8 01 40
       4.2979107 8.718051 -7.767345 2.029809
000130 b1 ec 1e c0 4c 75 9e 40 bf c5 91 c0 8f 15 ae 3f
       -2.4831965 4.9518185 -4.555389 1.3600329
000140 91 7a 9e 40 35 a4 49 3e b2 f8 fc bf b7 db 8f 40
       4.9524617 0.19691546 -1.9763396 4.4955707
000150 ad 95 41 bf 44 60 a1 c0 6d 6a 03 c1 21 13 bf 3f
       -0.7561901 -5.043001 -8.213483 1.4927713
000160 9e ad 98 bf b0 38 e9 3f 15 90 10 bf 35 e3 90 c0
       -1.1927984 1.8220425 -0.5646985 -4.527735
000170 bb 65 f9 bf a7 73 1d 40 23 0e c2 bf ac 48 07 40
       -1.9484171 2.4601839 -1.5160564 2.1138105
000180 a8 ab 85 3f 18 54 be 3f bd 64 29 40 c0 4e 1b 40
       1.044301 1.4869413 2.6467736 2.4266815
000190 51 bd 19 40 05 17 66 c0 c8 9a f6 bf 0a 87 0e c1
       2.40218 -3.595155 -1.9265985 -8.9079685
0001a0 be 8b 7b c0 82 c0 a4 be 2d b4 8a c0 25 bb 4e 40
       -3.9304042 -0.32178122 -4.334494 3.2301724
0001b0 9d df 47 be 2f 6a 05 c0 40 f7 34 40 64 03 09 3f
       -0.19518895 -2.084606 2.827591 0.535208
0001c0 df 93 df 3e 15 65 71 40 1a 5c 4c be 88 41 e7 3f
       0.43667504 3.7717946 -0.19957009 1.8066874
0001d0 af 77 97 40 e5 a5 a9 c0 0b eb 81 3e 9e 5a c3 bf
       4.73336 -5.301501 0.25374636 -1.5262029
0001e0 86 49 29 40 78 a5 d4 3f 2e 66 9f 40 97 b9 07 c0
       2.6451125 1.6612997 4.981223 -2.1207025
0001f0 de ff 07 3f cc db 36 40 3d 54 85 c0 77 29 f7 bf
       0.531248 2.8571653 -4.166533 -1.9309529
000200 7d 51 58 c0 c9 df fd 3e af 43 02 bf fd d4 3f bf
       -3.3799736 0.49584797 -0.50884527 -0.7493437
000210 11 3b 13 bf 69 04 04 c0 56 6a bd bf 96 76 ce 3f
       -0.57512003 -2.0627692 -1.4798076 1.612994
000220 3d 0a 23 40 88 02 16 c1 d6 23 c2 3f e7 1c a8 40
       2.5475 -9.375618 1.5167186 5.253528
000230 5d 55 b1 c0 49 12 32 40 25 fd 80 3f b3 91 2f 40
       -5.5416703 2.782366 1.0077254 2.7432678
000240 f9 77 f2 bf 13 fc 44 c0 7a 85 86 c0 a5 51 83 c0
       -1.8942863 -3.0778854 -4.2037935 -4.1037164
000250 1f 3c dd be f2 d5 23 c0 29 51 52 3f 70 a7 87 3f
       -0.4320993 -2.5599332 0.8215509 1.0597973
000260 36 7c 05 40 47 fc 82 3f 81 8b e4 3f d5 dd a7 c0
       2.0857062 1.0233239 1.7855073 -5.245829
000270 53 9b 2c c0 e2 33 1c 3f 6a dd ed c0 5c 8e b5 bf
       -2.6969802 0.61016667 -7.433278 -1.418407
000280 07 ac 96 be c6 0b 1a 3f c7 dd 29 40 36 50 37 40
       -0.2942812 0.60174215 2.6541612 2.8642707
000290 c1 b8 6e 3f 1e c7 c1 bf 4d 48 70 c0 d2 54 cd 3f
       0.9325066 -1.5138891 -3.754413 1.604151
0002a0 81 17 1e c0 00 13 35 c0 97 c2 07 40 1f 95 93 3f
       -2.4701846 -2.8292847 2.1212518 1.1529883
0002b0 a8 69 17 c0 67 0e 7a bf 30 2d 03 c0 52 ed c7 c0
       -2.3658237 -0.97678226 -2.049633 -6.24772
0002c0 11 3c e6 be 6c fd e9 bf 77 df dd be f1 44 dd bf
       -0.44967702 -1.8280463 -0.43334553 -1.7286664
0002d0 f9 28 53 40 0a a1 b5 bf 7c 42 d7 3d 12 1c 50 bf
       3.2993758 -1.418977 0.10510728 -0.8129283
0002e0 70 a6 9f c0 45 b3 4b 40 66 41 97 3e 65 e3 14 c0
       -4.989067 3.1828167 0.29542083 -2.326379
0002f0 0a 01 8e bf 4b 1a cb c0 f3 2a 90 c0 a4 72 25 40
       -1.1094067 -6.3469596 -4.505243 2.585122
000300 0c 69 90 3f 03 e0 53 c0 93 45 a7 c0 c5 30 02 3f
       1.1282058 -3.3105476 -5.227243 0.50855666
000310 fd 20 18 c0 74 a5 40 bf 86 3f 48 c0 b5 e6 48 40
       -2.3770134 -0.7525246 -3.1288772 3.1390812
000320 96 f3 d9 bf 26 cc 4a c0 dd 01 12 c0 66 7e 5d 40
       -1.7027462 -3.1687102 -2.2813637 3.4608397
000330 2c 65 98 be 44 c8 15 40 6c 5a 6d 40 f4 6f a0 bf
       -0.29764688 2.3403482 3.708644 -1.2534165
000340 dd 46 71 40 7d 29 55 bf 65 d7 61 3f 13 e3 26 3f
       3.7699502 -0.8326643 0.8821929 0.6519024
000350 5c b5 ce c0 a5 df d5 bf d0 69 38 3f a7 cc 21 c0
       -6.4596386 -1.6708876 0.7203646 -2.528116
000360 ea 23 3f 40 ab 64 e6 be 0e 33 ad 40 42 cc bc 3f
       2.986567 -0.4499868 5.4124823 1.4749835
000370 ba ff 3e 40 1f eb e0 40 2c a8 93 c0 bd 8a 1b 40
       2.9843583 7.0287013 -4.614279 2.430343
000380 c8 eb 87 40 d5 b9 aa c0 b2 c1 fd bd 82 a4 31 c0
       4.247532 -5.3351846 -0.1239046 -2.7756658
000390 ae e6 8c 40 03 b2 b2 bf c9 4d 0f c0 11 1e 40 c0
       4.403159 -1.3960575 -2.2391226 -3.001835
0003a0 c9 9e af bf ea 2e 80 3f 40 72 67 40 ee 5a b3 3e
       -1.3720332 1.0014317 3.6163483 0.3503031
0003b0 98 be 0e be 41 52 03 c0 7f 95 59 bf 7d 1e cd 40
       -0.13939893 -2.0518954 -0.8499374 6.4099717
0003c0 0c b5 28 3f 82 c9 31 40 f2 02 e4 3f 08 9e 0d 40
       0.65901256 2.777924 1.7813399 2.2127705
0003d0 62 bd da 3f e4 1f 1c c1 c4 93 3c 40 92 50 6d 40
       1.7089045 -9.757786 2.946519 3.7080426
0003e0 d2 ae 45 3f a8 fc 54 3e c4 33 65 3e 03 3a a0 3f
       0.7721988 0.20799506 0.22383028 1.2517704
0003f0 02 26 a3 bf 9e 9c 95 c0 ea 4f e1 3e 8e dd aa bf
       -1.2745974 -4.6753683 0.44006282 -1.3348863

bias f4 [64]
000000 00 85 84 3d af 15 49 bb f7 d6 8a bc d1 b8 bb bd
       0.0647068 -0.003068309 -0.016948206 -0.0916611
000010 93 2a ad bc fe 1c 9e 3c 99 7a 9a 3c 83 03 1c bd
       -0.021138465 0.019300934 0.018857287 -0.038089287
000020 5d 8d e0 bd 84 c4 a1 bd c3 96 86 3d 7e 95 12 3d
       -0.10964463 -0.078988105 0.06571724 0.035787098
000030 52 c9 5f 3d 87 5b 2c 3d 4d 22 2c 3d ae fa 13 bd
       0.054635353 0.042079475 0.0420249 -0.03612774
000040 f9 f4 e6 bc fb 22 f3 3a b8 a5 48 b8 2d 12 d9 3d
       -0.028192984 0.0018549854 -4.7838053e-05 0.1059917
000050 3d 4a cb ba 5f bd 91 bd 3e 8e b2 3d 0c ae 14 be
       -0.0015509796 -0.07116198 0.08718537 -0.14519519
000060 d7 30 13 3e db 3d 2a bc 08 de 1d bd 1f b5 fe 3c
       0.143741 -0.010390724 -0.038541824 0.031092225
000070 64 51 5c 3d 82 32 da 3d 3c 6b cc 3c b6 7c 8e bc
       0.053788558 0.10654165 0.024953477 -0.017393451
000080 28 98 ef 3c be c0 06 bc 91 bc ba 3c 81 27 d5 3b
       0.029247358 -0.008224664 0.022794994 0.0065049534
000090 b3 4c d6 3c 41 97 93 bd de b4 ac bd 7e 7d 1c 3c
       0.02615962 -0.07206584 -0.08432935 0.009551404
0000a0 83 48 df bc 95 1c 07 bb 0c fc 8b bd c6 1f 9f 3c
       -0.027256256 -0.0020616401 -0.068351835 0.01942433
0000b0 ae 64 7e 3c 72 6e 0f bb 74 83 93 bd dd 4f 22 bd
       0.015526934 -0.00218859 -0.07202807 -0.039626945
0000c0 c3 10 90 bd ee 34 58 bd 6d 43 b8 bd 61 64 a9 3c
       -0.07034447 -0.052784853 -0.089972354 0.020677747
0000d0 f2 2f bb 3c 07 8f 05 3c 29 cf 3c 3d d2 8f 2f 3d
       0.02285001 0.008151776 0.046096 0.042861767
0000e0 b6 c1 94 bd 68 2c da bd eb 1a ae 3c e6 57 cc 3d
       -0.0726351 -0.10653001 0.02125307 0.09977703
0000f0 2c 59 cb 3d 39 48 f2 bd 62 81 02 bd bc c1 6b bd
       0.099291176 -0.11830182 -0.03186167 -0.057557806

weight f4 [4]
000000 1c 10 9d 3e 45 6a 3d 40 f6 8d 18 40 9b 8f 82 40
       0.30676353 2.9596112 2.3836646 4.08003

bias f4 [4]
000000 22 eb 8a c0 18 5a e8 3f f4 f8 ce 3f b0 1f 62 40
       -4.3412027 1.8152494 1.6169724 3.533184

running_mean f4 [4]
000000 a9 d4 36 be fb a1 7b 3f 70 27 d3 3f 9d 34 2d c0
       -0.17854561 0.9829404 1.649641 -2.7063363

running_var f4 [4]
000000 37 bc 94 3e 3f d5 43 3f bd 71 fd 3e ab 60 3c 3f
       0.29049847 0.7649726 0.49500838 0.73585004

weight f4 [8]
000000 4f 4b 78 40 a3 db 18 40 12 67 7b 40 0c 02 63 40
       3.8795965 2.3884056 3.928166 3.547
000010 5e 3c 9b 40 96 ea 65 40 eb 79 5a 40 53 98 02 3e
       4.851119 3.592443 3.4136913 0.1275342

bias f4 [8]
000000 d6 34 bb 3f a1 a9 35 c0 f7 75 07 40 ad c2 5f 40
       1.4625499 -2.8384783 2.116575 3.496257
000010 ed ec 5e 3f 00 59 97 3f de f6 96 40 b5 f7 b0 bf
       0.8708027 1.1824036 4.717635 -1.3825594

running_mean f4 [8]
000000 b8 d3 68 c0 ac af bb 41 fe 87 a8 41 c4 82 23 c1
       -3.6379223 23.460777 21.066402 -10.219425
000010 e7 83 8a c1 31 dd b2 41 fd 64 f9 c2 ec 0b 4f c2
       -17.314405 22.358004 -124.69724 -51.761642

running_var f4 [8]
000000 d7 6b 46 45 f6 34 a1 44 9b 8f 05 45 bd 0c 41 45
       3174.74 1289.655 2136.9753 3088.7961
000010 16 8c e0 44 90 c8 6c 45 f9 1b 09 46 eb 65 87 45
       1796.3777 3788.5352 8774.993 4332.7397

weight f4 [16]
000000 54 10 ea 40 fb 83 3e 40 d6 ab 9d 40 f3 db c3 40
       7.314493 2.9768054 4.927226 6.1205993
000010 ef c3 92 40 29 0c 17 40 63 0d 7c 40 dd 1f a4 40
       4.5864177 2.3601172 3.938317 5.1288896
000020 8a ec c1 40 7a 7a 43 40 be f4 5d 40 d3 bd 88 40
       6.0601244 3.0543504 3.4680629 4.273172
000030 8a c8 40 40 92 03 1e c0 5c 2f c7 40 17 3d cc 40
       3.01224 -2.468968 6.224531 6.3824573

bias f4 [16]
000000 9e d2 bb bf c9 8a bd bf a5 ab 9d 3e d3 fe d2 bf
       -1.467365 -1.4807979 0.30795017 -1.6484016
000010 52 03 09 3e cd ea 3b 3f 8b 6b b4 bd f3 02 28 3f
       0.13380173 0.7340515 -0.08809575 0.656295
000020 c7 f3 01 40 fb b7 06 3f 2c b9 5f c0 5f c9 ba bf
       2.030504 0.5262448 -3.495677 -1.4592704
000030 7f 19 32 bf d8 81 a9 bf d1 e6 38 bf 0c 7a d4 be
       -0.69570154 -1.324275 -0.722272 -0.41499364

running_mean f4 [16]
000000 b7 a3 c9 c3 e8 9c 70 c3 31 6d 11 c2 5c 2c 47 c3
       -403.27902 -240.61292 -36.356632 -199.17328
000010 b7 f9 32 c3 1e 1a a9 42 1f 90 16 c3 03 03 23 c3
       -178.97545 84.55101 -150.56297 -163.01176
000020 ee bf 48 c3 e2 70 57 c3 ab ad 08 c3 59 3e d7 c2
       -200.74973 -215.44095 -136.67839 -107.62177
000030 ec a6 54 42 af ea 8f 42 cf 45 65 c3 49 72 14 c3
       53.16301 71.95837 -229.27269 -148.44643

running_var f4 [16]
000000 77 2e ac 46 66 ae 04 47 70 07 9c 45 56 21 44 46
       22039.232 33966.4 4992.9297 12552.334
000010 89 1c 20 46 1d e1 58 46 89 91 8d 46 b8 6b a2 46
       10247.134 13880.278 18120.768 20789.86
000020 f8 82 2b 46 6c fd a5 46 df 6d 3f 46 7c 69 43 46
       10976.742 21246.71 12251.468 12506.371
000030 82 ba c4 46 ba 29 84 46 e5 95 8a 46 b1 bb 82 46
       25181.254 16916.863 17738.947 16733.846

weight f4 [32]
000000 67 d7 9f 40 77 4a 5e 40 e4 00 4b 40 ad 1f 61 40
       4.995044 3.473295 3.1719294 3.5175583
000010 5f 90 4b 40 a6 78 9c 40 20 1c 85 40 3d 35 6e 40
       3.1806867 4.8897276 4.159683 3.7219994
000020 17 0d 63 40 fd 97 72 40 2c d3 83 40 b9 69 96 40
       3.547674 3.7905266 4.119528 4.7004056
000030 05 e6 8e 40 0c 22 56 40 e8 50 89 40 75 c4 74 40
       4.4655786 3.345828 4.2911263 3.8244908
000040 eb e2 74 40 c9 12 79 40 0e de 9c 40 63 97 85 40
       3.82635 3.8917716 4.9021063 4.17473
000050 d4 9b 9b 40 bb 39 9d 40 93 d2 57 40 23 4a 38 40
       4.862772 4.913297 3.3722274 2.879525
000060 4b 4f 90 40 d9 e2 12 c0 88 6f 4a 40 0f 20 67 40
       4.5096793 -2.2950957 3.1630573 3.6113317
000070 6a 25 87 40 97 73 8a 40 c7 2a 6d 40 4f 04 57 40
       4.223317 4.32661 3.705736 3.359638

bias f4 [32]
000000 bc 2b 2b c0 3a d5 ce bf b2 d5 32 c0 3d 1e 46 bf
       -2.6745443 -1.6158822 -2.794293 -0.7738989
000010 e8 ae ee bf f6 ec 14 c0 f9 22 01 bf 55 05 44 c0
       -1.8647127 -2.326963 -0.5044399 -3.0628254
000020 46 9e 85 bf 3f 33 cb bf 2b 45 c6 bf 8c 5d 46 c0
       -1.0438926 -1.5875014 -1.5489858 -3.0994596
000030 54 b3 4a 40 f7 17 0a c0 4e 44 d7 bf b9 27 87 c0
       3.1671953 -2.1577127 -1.681772 -4.223599
000040 85 63 26 c0 c9 87 6b c0 c3 8b 48 c0 a9 a3 4b c0
       -2.5998242 -3.6801627 -3.1335304 -3.181864
000050 eb b4 26 c0 2f 19 43 c0 38 30 34 c0 a2 18 62 bf
       -2.6047924 -3.048412 -2.815443 -0.88318837
000060 c6 d9 cd bf d5 16 c9 bf fc b3 ba bf fb 04 38 c0
       -1.6082084 -1.5710093 -1.4586177 -2.875304
000070 f5 14 87 c0 b4 71 5e c0 2d 6b 16 c0 c6 69 19 c0
       -4.221308 -3.47569 -2.3502915 -2.397081

running_mean f4 [32]
000000 13 c1 5c c3 b5 cc e6 c0 09 15 2a c3 a8 5d 8a c2
       -220.7542 -7.2124887 -170.08217 -69.18292
000010 75 1a aa c2 bf e3 23 c2 b6 a0 b7 c2 4b 1c ed c2
       -85.051674 -40.97241 -91.81389 -118.55526
000020 5f b0 e7 c2 49 10 c4 c2 b3 f6 75 c1 31 fd 17 c3
       -115.844475 -98.03181 -15.372729 -151.98903
000030 7f 2d 65 c3 e6 28 ce c2 6c d7 af c2 96 00 2b c3
       -229.17772 -103.07988 -87.920746 -171.00229
000040 4f ba e0 c2 a3 54 0f c3 5a 49 b3 c2 2e a7 3d c0
       -112.363884 -143.33061 -89.643265 -2.9633288
000050 29 e4 05 c3 60 66 02 c3 75 e3 c8 c2 01 68 02 c3
       -133.89125 -130.3999 -100.44425 -130.40627
000060 cb 25 a3 c2 32 78 b5 c2 1c 85 f7 41 24 b4 0a c3
       -81.573814 -90.73476 30.939995 -138.70367
000070 50 06 f4 c2 08 85 e9 c2 bb c5 4b 41 bc b0 cc c2
       -122.01233 -116.75983 12.735774 -102.345184

running_var f4 [32]
000000 84 d4 8a 46 11 17 1c 46 99 af 25 46 79 ae 92 46
       17770.258 9989.767 10603.899 18775.236
000010 a0 35 1a 46 7b d2 80 46 a7 b3 57 46 4c 10 a4 46
       9869.406 16489.24 13804.913 21000.148
000020 4f ea 55 46 aa f7 9c 46 73 e1 2f 46 ec 11 69 46
       13690.577 20091.832 11256.362 14916.48
000030 bb 77 ce 46 bd c3 22 46 26 99 2e 46 e2 f9 46 46
       26427.865 10416.935 11174.287 12734.471
000040 0d f7 01 46 18 92 20 46 6a 19 65 46 74 da 37 46
       8317.763 10276.523 14662.354 11766.613
000050 d4 7f 2a 46 b0 ee b5 46 48 02 34 46 05 d8 2d 46
       10911.957 23287.344 11520.57 11126.005
000060 a5 2c 49 46 62 02 64 46 3f 89 76 46 81 4a 77 46
       12875.161 14592.596 15778.312 15826.626
000070 3e d5 84 46 7f be 26 46 f8 99 6d 46 67 a0 1e 46
       17002.621 10671.624 15206.492 10152.101

weight f4 [64]
000000 14 f8 c2 3f 28 59 9f 3f 25 a2 cf 3f 41 2f 2a 40
       1.5231957 1.2449083 1.6221358 2.6591341
000010 21 fe 20 40 ae e1 14 40 c8 ad 2b 40 25 17 77 3f
       2.5155108 2.3262744 2.6824818 0.9651969
000020 40 d6 ba 3f d4 ad 18 40 05 ed ee 3f 89 17 93 3d
       1.4596634 2.3856096 1.8666083 0.07182223
000030 48 5b ed 3f 3d 2a 1b c0 3e 7c 80 3f 8f 68 84 3f
       1.8543482 -2.424453 1.0037916 1.0344409
000040 0b 84 e4 3f 96 50 ae 3f d5 65 24 c0 04 29 19 40
       1.7852796 1.3618343 -2.5687153 2.3931284
000050 6e e2 cd bf e4 f8 b6 bf 45 d6 9d bf a8 f0 1d 40
       -1.6084726 -1.4294705 -1.2331015 2.4678135
000060 63 10 05 40 76 68 cb be d9 2b 9d 3f fa b3 e5 3f
       2.0791252 -0.39728135 1.2279006 1.794555
000070 4f 30 2f c0 56 6e 0a 3f e9 ab ec bf 70 52 3f 3e
       -2.7373235 0.5407461 -1.8489963 0.18683791
000080 cb 93 ad bf f8 e6 ac 3f 54 49 30 3f d8 b8 b6 3f
       -1.3560728 1.3507986 0.6886189 1.427516
000090 31 06 ab 3f de 43 22 40 eb 3d 29 40 cd 3d c9 3f
       1.3361264 2.5353923 2.6444042 1.5721985
0000a0 d1 b4 95 3f 53 70 b2 3f 26 1d a0 3f ff af c0 bf
       1.1695806 1.3940529 1.2508895 -1.505371
0000b0 4b f5 97 3c 36 37 37 3e 64 98 4f 3f b5 47 be 3f
       0.018549582 0.17892155 0.81091905 1.4865633
0000c0 15 f8 f4 3f c9 b2 bd 3f 5d 5f 23 40 90 bd cc bf
       1.9138209 1.4820186 2.5526955 -1.599535
0000d0 d0 54 1d 40 a1 7b fc 3f 0b 68 29 c0 22 25 c4 3f
       2.4583015 1.9725229 -2.6469753 1.5323832
0000e0 0e 2c ff 3f b6 6f 1f 40 04 a2 3d 3f ff ae c3 3f
       1.993532 2.4911933 0.7407534 1.528778
0000f0 cb 7b e8 3f 4a 21 88 3f 0b e5 b2 be e8 8b 08 40
       1.8162779 1.0635159 -0.3494037 2.1335392

bias f4 [64]
000000 c0 b0 68 c0 52 c9 03 c0 84 ab 44 c0 eb a6 98 c0
       -3.635788 -2.0591626 -3.0729685 -4.7703757
000010 e0 ea 89 c0 c8 81 85 c0 72 65 89 c0 27 46 11 c0
       -4.3099213 -4.1720924 -4.2936335 -2.2699068
000020 60 f3 29 c0 72 df 8b c0 7a a9 6c c0 ca 97 04 bf
       -2.6554794 -4.371026 -3.697844 -0.5179411
000030 28 37 40 c0 fd 12 a3 c0 44 0c 21 c0 64 08 ce bf
       -3.0033665 -5.096068 -2.5163736 -1.6096311
000040 fe 5c 61 c0 19 d7 23 c0 0d d9 b5 c0 f4 a2 7a c0
       -3.5213008 -2.5600035 -5.6827455 -3.9161959
000050 bb f0 36 c0 09 ab ed bf 4e f1 10 c0 a5 bf ab c0
       -2.858443 -1.8567821 -2.264728 -5.367144
000060 1c 83 1b c0 86 b4 6b bf 43 ef 08 c0 5a 8e 5a c0
       -2.4298773 -0.9207233 -2.1396034 -3.4149384
000070 32 9d 9e c0 8a 03 9f bf 7a 3e 84 c0 15 fc 12 bf
       -4.956689 -1.2422955 -4.1326265 -0.57415897
000080 c5 5a 39 c0 21 53 01 c0 6e dd 1d c0 6b dd fe bf
       -2.8961651 -2.0206988 -2.46664 -1.9911321
000090 2c 3f 06 c0 b3 e2 82 c0 d0 db a8 c0 17 52 3d c0
       -2.0976057 -4.0901732 -5.2768326 -2.9581354
0000a0 a5 36 0d c0 07 77 2a c0 b0 41 fc bf 7b 43 5c c0
       -2.2064602 -2.6635149 -1.9707546 -3.4416187
0000b0 f0 bd 14 bf c4 d8 84 be 9e e3 3d c0 9c 26 1d c0
       -0.5810232 -0.2594663 -2.9670177 -2.4554815
0000c0 68 8a 73 c0 80 32 1d c0 f1 36 9f c0 e5 04 34 c0
       -3.8053226 -2.4562073 -4.9754567 -2.8127987
0000d0 f4 23 8e c0 2a 1d 87 c0 42 c5 9f c0 91 b4 f8 bf
       -4.441889 -4.22231 -4.9928293 -1.9430104
0000e0 b3 49 40 c0 25 28 83 c0 4c a5 b6 bf c1 d5 27 c0
       -3.0044982 -4.0986505 -1.4269195 -2.6224215
0000f0 e5 54 34 c0 13 38 e8 bf 3f 5a 84 bf f6 a1 5a c0
       -2.8176816 -1.8142112 -1.0340041 -3.4161353

running_mean f4 [64]
000000 43 31 97 c1 5c 9c 6c c2 60 30 64 c1 9f 2a a9 c2
       -18.899054 -59.152695 -14.26181 -84.583244
000010 ac 85 51 c2 c4 82 65 c2 a2 93 f9 c1 81 9b cf c2
       -52.38054 -57.3777 -31.197086 -103.80372
000020 3e e7 28 c2 b9 6c 98 c2 63 06 b8 40 d9 1b df c2
       -42.225822 -76.21235 5.7507796 -111.55439
000030 de bb ed c2 4a 8c 9f 42 63 61 8d c2 72 f1 d8 40
       -118.86693 79.774 -70.69021 6.7794733
000040 26 7b 42 c1 6c 40 6a c2 01 2e 5f 41 7d d8 a4 c1
       -12.155066 -58.562912 13.948731 -20.605707
000050 34 5d dc 41 9f 96 7f 42 06 10 2c 42 1c 77 13 42
       27.54551 63.89709 43.015648 36.866318
000060 c5 1c b8 c2 c0 20 70 41 12 e0 2d 41 d7 14 b0 c2
       -92.05619 15.007996 10.867205 -88.0407
000070 28 2c 3a 42 6b e1 79 c2 21 8c 98 42 c9 8b 9c 41
       46.54312 -62.470135 76.27369 19.568254
000080 b8 6d 7a be 54 1a fe c1 b6 d3 9e 42 eb 2a cb c2
       -0.24455917 -31.762856 79.4135 -101.583824
000090 3e ec 04 c3 99 59 96 c2 a6 e9 03 c2 06 1e 1c 42
       -132.92282 -75.174995 -32.978172 39.02932
0000a0 19 68 9d c2 f7 80 98 c2 c1 fb a9 c2 45 13 84 42
       -78.703316 -76.251884 -84.99171 66.037636
0000b0 d3 2d 65 43 b3 8c 8f c2 42 08 c1 c2 fb 18 88 c2
       229.179 -71.7748 -96.51613 -68.04879
0000c0 d0 fe af c1 14 bf 58 c2 3c 0a 1e 42 e8 d4 29 43
       -21.99942 -54.1866 39.509995 169.83167
0000d0 b8 8b 90 c2 b7 13 03 42 7c 72 63 42 49 f8 80 c2
       -72.27289 32.769253 56.8618 -64.48493
0000e0 94 19 25 41 e3 97 89 c1 ed 5f 23 c0 33 6d 8c c2
       10.318745 -17.199163 -2.5527298 -70.21328
0000f0 1e c5 83 c2 a6 18 41 c2 d3 27 bb 42 2a 75 90 c2
       -65.884995 -48.27407 93.57778 -72.228836

running_var f4 [64]
000000 71 e3 8a 46 b5 33 dd 46 19 91 60 46 50 11 81 46
       17777.72 28313.854 14372.274 16520.656
000010 31 ff 7d 46 fb 62 41 46 bd d4 6c 46 1d 71 e6 46
       16255.798 12376.745 15157.185 29496.557
000020 39 54 88 46 61 b3 57 46 82 a4 6a 46 ba cc 03 47
       17450.111 13804.845 15017.127 33740.727
000030 4e cd 97 46 f8 bd 2e 46 08 69 59 46 9a 84 ab 46
       19430.652 11183.492 13914.258 21954.3
000040 99 7f 80 46 71 07 9a 46 6b 23 00 46 71 c6 22 46
       16447.799 19715.72 8200.8545 10417.61
000050 c0 bf 1c 46 8a c8 3e 46 e2 de 9c 46 8e c0 29 46
       10031.9375 12210.135 20079.441 10864.139
000060 15 4d 7c 46 34 e2 bb 46 73 e4 a6 46 37 b2 45 46
       16147.2705 24049.102 21362.225 12652.554
000070 c5 0c 35 46 ba 43 dc 46 a0 75 50 46 3d d0 27 47
       11587.192 28193.863 13341.406 42960.24
000080 87 44 59 46 57 68 70 46 dc 86 32 46 ab 9b ff 46
       13905.132 15386.085 11425.715 32717.834
000090 41 7d c0 46 69 40 84 46 bb 3e 7a 46 37 f4 56 46
       24638.627 16928.205 16015.683 13757.054
0000a0 e3 99 15 47 d4 ff 8f 46 8e 0e 85 46 43 c1 41 46
       38297.887 18431.914 17031.277 12400.315
0000b0 52 09 e3 46 44 43 51 47 7c 73 53 46 db 16 b5 46
       29060.66 53571.266 13532.871 23179.428
0000c0 18 68 50 46 1a 8a 94 46 fd 01 70 46 86 01 89 46
       13338.023 19013.05 15360.497 17536.762
0000d0 54 2b 84 46 11 56 2b 46 79 cc 42 46 09 fc 4c 46
       16917.664 10965.517 12467.118 13119.009
0000e0 a2 f1 ad 46 c4 63 76 46 cd c7 b1 46 29 f8 8c 46
       22264.816 15768.941 22755.9 18044.08
0000f0 18 f5 ad 46 a6 46 2b 46 d9 40 b8 46 0c 18 30 46
       22266.547 10961.662 23584.424 11270.012
